model/pytorch_model.pth (torch, 16764 bytes, 1 tensors)

fc.weight f4 [1, 3792]
0.30303633 0.38141498 0.55298615 0.42550495 0.28830352 0.15165614 0.8708101 0.75141084
0.31556794 0.2998541 -0.007780487 0.30956182 0.31564385 0.30730805 1.106529 1.5394398
2.09032 0.4037943 0.6152724 0.5144172 0.8467507 0.68815255 0.23209731 0.77673584
1.9317663 0.667876 0.83926135 -0.010954739 0.58476204 0.8263641 1.2492098 0.5135207
-0.007930813 1.483482 0.5639043 0.60846525 0.32004496 0.5544339 0.5597364 0.295011
0.08123566 0.9928729 0.46685076 -0.056206677 0.4660044 0.26663566 -0.0145588815 -0.94951725
-0.92961425 1.2884617 -0.29676569 1.1623931 -0.006256209 -0.01324578 0.4207569 0.48925644
0.512132 1.5124791 -1.0389963 3.869784 0.021168927 -0.05170634 0.86427355 -0.21188745
-0.3043101 -0.2985044 -0.00072517066 -0.3382546 -0.012781483 -1.0356447 0.47656715 0.4839201
0.5752439 0.4424314 0.72403365 0.49052426 0.2697141 -0.15515834 0.28437272 0.29985094
0.31513214 0.5002293 0.41912746 0.2880609 0.17001121 2.9514308 0.24818489 0.31240222
0.52904385 0.3025317 0.29486796 0.6144942 0.36933726 0.30403605 0.43723416 0.6658272
0.29157832 0.49755386 0.25940034 0.31864485 0.3171743 0.8262376 0.5112807 0.79759264
5.3171706 -0.0062776874 0.29274756 -0.007589674 0.5820838 0.29318526 0.4694718 0.32240993
0.27122527 0.28419504 0.5720541 1.7376019 1.3891361 0.5064736 0.3023625 0.3225242
1.1837063 -0.29052478 -0.7374732 -0.78771883 -0.33311746 -0.31203437 0.7948491 -0.32737795
0.31229833 -0.640802 -6.235821e-05 0.48653153 0.31011692 0.4196488 0.6746876 -0.29628405
0.26740462 0.5722278 -0.074494086 0.21891245 0.30562246 -0.29552948 0.59157175 0.25617233
-0.27878356 0.2842463 0.013209458 -0.31370938 0.6276824 0.40600047 0.14993878 0.26818442
0.33472311 -0.30696413 -0.31517297 0.0060859416 0.86998194 0.27447024 0.30613956 0.30409285
0.3405169 0.30681396 0.4323129 0.61618644 1.2128237 -1.2011182 -0.28557646 -1.5409001
-0.5476731 1.2769026 -0.32683685 -0.15119745 -1.8952686 -2.8604016 -0.38913682 -0.00059390906
0.28428006 -4.12749 -0.93197805 -3.8573644 -1.2780682 -1.3479053 -0.5746387 -0.32233122
-0.31219712 0.29301187 0.3001598 0.2963043 0.4726201 -0.31061697 0.5425914 -0.31956604
-0.19220568 -0.0093453135 0.30856487 0.5174217 -0.32333025 -0.004282036 -0.7348571 0.5507505
-1.1035184 -1.2019585 3.4540322 0.98469687 0.5117172 -0.5677655 -0.4307887 0.39703813
-0.05483642 0.66897184 0.25864992 0.30255353 0.6642097 0.48845556 0.29561886 0.3390738
-0.4934427 -0.0013373988 0.29599124 -2.1664858 7.0071616 -0.787945 -0.6948382 -2.9797347
0.43985683 -1.4576118 -1.1059439 -1.4102882 -2.1277156 -0.4590311 -3.9374108 -1.5231303
-0.66591203 -2.3973484 -1.4300214 -2.5821764 -2.3486748 1.5670844 -0.06723408 -2.2718427
3.619775 -0.103432015 -0.18386504 -1.0058243 -1.7625811 -1.3890297 -0.29635775 -0.78735614
-0.3231218 -0.30522102 -0.7776626 0.46083167 -1.2838843 -0.40697682 -0.01157463 -0.68246186
00000000: 9427 9b3e d348 c33e 8090 0d3f c9db d93e
00000010: 859c 933e bf4b 1b3e 69ed 5e3f 765c 403f
00000020: 1f92 a13e 7a86 993e 75f3 febb e37e 9e3e
00000030: 129c a13e 7b57 9d3e bea2 8d3f 5d0c c53f
00000040: cec7 0540 20be ce3e 7e82 1d3f d8b0 033f
00000050: a7c4 583f c42a 303f ebaa 6d3e 29d8 463f
00000060: 1e44 f73f ecf9 2a3f d5d9 563f 817b 33bc
00000070: f7b2 153f 998c 533f 1be6 9f3f 1876 033f
00000080: 3ef0 01bc bde2 bd3f 085c 103f 61c4 1b3f
00000090: efdc a33e 61ef 0d3f e24a 0f3f af0b 973e
000000a0: e25e a63d eb2c 7e3f 1007 ef3e f938 66bd
000000b0: 2198 ee3e 7884 883e 6088 6ebc 9013 73bf
000000c0: 33fb 6dbf 50ec a43f acf1 97be 4cc9 943f
000000d0: e300 cdbb d404 59bc 736d d73e d27f fa3e
000000e0: 151b 033f ea98 c13f d5fd 84bf 8baa 7740
000000f0: 756a ad3c 07ca 53bd 0841 5d3f 06f9 58be
00000100: 89ce 9bbe 92d5 98be 6119 3eba b52f adbe
00000110: 6d69 51bc 0190 84bf 9c00 f43e 60c4 f73e
00000120: 2f43 133f 5e86 e23e 455a 393f ff25 fb3e
00000130: f717 8a3e d4e1 1ebe 4d99 913e 1086 993e
00000140: 0059 a13e 070f 003f e097 d63e b87c 933e
00000150: 6b17 2e3e 3ee4 3c40 2e24 7e3e 2ff3 9f3e
00000160: 6b6f 073f 6fe5 9a3e eff8 963e 7e4f 1d3f
00000170: c619 bd3e 9daa 9b3e 28dd df3e a773 2a3f
00000180: c149 953e 61bf fe3e 1fd0 843e 6b25 a33e
00000190: ab64 a23e 4f84 533f 4be3 023f 082f 4c3f
000001a0: 4326 aa40 0fb5 cdbb 02e3 953e cdb2 f8bb
000001b0: 7203 153f 611c 963e 9c5e f03e ea12 a53e
000001c0: 0ade 8a3e 0382 913e 2372 123f bd69 de3f
000001d0: 36cf b13f 41a8 013f 42cf 9a3e e421 a53e
000001e0: b083 973f aabf 94be 0bcb 3cbf f1a7 49bf
000001f0: 5f8e aabe f8c2 9fbe 3b7b 4b3f 159e a7be
00000200: 91e5 9f3e 9a0b 24bf 4fc6 82b8 a91a f93e
00000210: a5c7 9e3e 35dc d63e 54b8 2c3f 8bb2 97be
00000220: 42e9 883e 857d 123f 5b90 98bd 962a 603e
00000230: 8c7a 9c3e a44f 97be 3f71 173f 0529 833e
00000240: b8bc 8ebe bb88 913e 7c6c 583c 849e a0be
00000250: cbaf 203f 4bdf cf3e 8d89 193e 784f 893e
00000260: d460 ab3e 672a 9dbe 5a5e a1be 946c c73b
00000270: 23b7 5e3f 5d87 8c3e 53be 9c3e 0fb2 9b3e
00000280: 3b58 ae3e b816 9d3e 1e58 dd3e 65be 1d3f
00000290: cf3d 9b3f 3ebe 99bf 1437 92be 373c c5bf
000002a0: 4e34 0cbf 8b71 a33f 2957 a7be 81d3 1abe
000002b0: 2998 f2bf d210 37c0 f13c c7be 90b0 1bba
000002c0: 288d 913e 6614 84c0 1d96 6ebf 0fdf 76c0
000002d0: bd97 a3bf 2988 acbf 861b 13bf 9908 a5be
000002e0: 4dd8 9fbe a705 963e 8cae 993e 32b5 973e
000002f0: 43fb f13e 3009 9fbe 45e7 0a3f 299e a3be
00000300: 91d1 44be 161d 19bc 37fc 9d3e c075 043f
00000310: 8b8b a5be 5250 8cbb 981f 3cbf fcfd 0c3f
00000320: 1740 8dbf c7d9 99bf dd0e 5d40 1815 7c3f
00000330: e6ff 023f 1459 11bf 5690 dcbe 9548 cb3e
00000340: 279c 60bd bd41 2b3f c36d 843e 4ce8 9a3e
00000350: a609 2a3f d916 fa3e 5b5b 973e 159b ad3e
00000360: 86a4 fcbe a84b afba 2a8c 973e b4a7 0ac0
00000370: ab3a e040 c3b6 49bf ebe0 31bf f9b3 3ec0
00000380: ea34 e13e 0693 babf 928f 8dbf 5384 b4bf
00000390: 7e2c 08c0 2006 ebbe 8afe 7bc0 eff5 c2bf
000003a0: 3679 2abf 286e 19c0 f10a b7bf 6142 25c0
000003b0: b050 16c0 3996 c83f 05b2 89bd df65 11c0
000003c0: 65aa 6740 2ad4 d3bd 1e47 3cbe dabe 80bf
000003d0: 429c e1bf bacb b1bf 34bc 97be 2c90 49bf
000003e0: 3870 a5be ee45 9cbe e514 47bf 21f2 eb3e
000003f0: 5256 a4bf 445f d0be 84a3 3dbc d2b5 2ebf
